ressources/model_mnist.pth (torch, 102999 bytes, 6 tensors)

conv1.weight f4 [16, 1, 3, 3]
000000 38 65 8a 3d 4a d5 10 be 60 7b 97 3e cd bb ba bc
       0.06757587 -0.14143863 0.29586315 -0.022794629
000010 a2 7a 2c bd cb 27 61 be 8a 94 b3 bd 20 b9 56 3d
       -0.04210914 -0.21987836 -0.08768566 0.052422643
000020 fe 15 cc 3d ce 90 61 be c0 9c e0 3c 7e ae 68 3e
       0.09965132 -0.22027895 0.027418494 0.22722813
000030 e0 89 64 3c e6 9c 6e be b6 e4 7c be 40 41 b2 bb
       0.013948888 -0.2330204 -0.24696621 -0.0054399073
000040 eb 4e 26 be 80 1d e1 bd 41 e9 ea bc dc 35 85 be
       -0.16241042 -0.10991955 -0.028675677 -0.26017654
000050 8f 10 99 bc 46 31 d9 3e e2 19 a5 3e fe 32 fe 3d
       -0.018684654 0.42420405 0.3224631 0.1241207
000060 8d c3 40 be c9 29 fb bd a5 e3 a8 3e 7d 13 25 be
       -0.18824597 -0.12263829 0.3298618 -0.16120715
000070 0b 16 c3 3d ae 1f 45 be 8a 99 a8 be aa bf a5 be
       0.09525689 -0.19250366 -0.3292964 -0.3237279
000080 77 da 5c 3e 30 69 9b 3e f0 bf 95 be 9f 06 3d 3e
       0.21567713 0.3035369 -0.29248 0.18459557
000090 1a 72 b5 3e 4b 7a 67 3e 95 1a 60 3e 9d 40 20 bd
       0.35438615 0.22605245 0.2188514 -0.03912412
0000a0 cb e5 51 3e 79 cb 84 3e e1 05 94 be 4c 88 a8 be
       0.20497815 0.25936487 -0.28910735 -0.32916486
0000b0 b6 3c 16 be 51 f7 23 3e b1 de c3 3d 47 5c c7 3d
       -0.14671597 0.16012312 0.095639594 0.097343974
0000c0 fe 8e 38 3e e7 0a 7e be c7 08 08 be 0f 75 0d be
       0.18023297 -0.24808846 -0.13284598 -0.13814186
0000d0 07 31 91 be ea 43 13 be 83 f9 13 3e 0c 07 ef 3e
       -0.28357717 -0.14381376 0.1445065 0.46685064
0000e0 e5 0f f0 bc 0f 7a 36 be 2d 56 87 3e 8f dc f4 3e
       -0.029304454 -0.17819999 0.26432934 0.47824523
0000f0 9b 6e cc be 3f e6 68 be 07 b2 9f be 70 11 1e 3f
       -0.39928135 -0.22744082 -0.31190512 0.6174536
000100 e0 22 b2 3e d2 55 30 3f c3 25 b0 3e b6 d2 26 3f
       0.34792233 0.6888095 0.3440381 0.6516527
000110 38 c1 d5 3c 19 e4 08 3f ae e6 f1 bd 77 c8 17 bd
       0.02609311 0.5347305 -0.11811577 -0.037056413
000120 de d9 8a 3e d7 1e 4e 3e ac ff ae be 51 13 6d 3e
       0.27119344 0.20128952 -0.34179437 0.231519
000130 38 9d 4f 3e a8 33 25 be 65 b2 d7 bd 3d 4f 27 be
       0.20274818 -0.16132987 -0.10532073 -0.16338821
000140 16 09 81 3e 4d fd 21 be d9 f0 0b be 97 e5 d2 3e
       0.25202245 -0.15819283 -0.13666095 0.41190788
000150 6c 40 47 3e 8e e8 26 3f 3d e0 81 3e b6 dd ff 3e
       0.19458169 0.651986 0.25366393 0.4997384
000160 cd 18 b3 3e ed f6 d9 3e 55 3a 03 bd 32 96 a9 be
       0.3497986 0.42571202 -0.03203805 -0.33122402
000170 cf 83 07 3d 1a 8f 53 be 50 af 7c 3e e1 b1 f0 bd
       0.033084687 -0.20660058 0.24676251 -0.11752678
000180 28 92 20 bd f9 6f 3b bc 3a 7e 57 be 7f bd cf 3e
       -0.039201885 -0.011440271 -0.21044245 0.40574262
000190 de 10 3e 3f 04 32 ab 3e a0 53 74 3f f9 ab 91 3f
       0.7424449 0.33436596 0.954401 1.1380607
0001a0 85 64 56 3f 4f 0f ba 3e 8c 64 06 3f 6f 59 1c 3f
       0.8374713 0.36339805 0.5249717 0.61073965
0001b0 51 eb 58 3d 42 d0 0c bd 8a dd a0 3e 76 39 cf 3d
       0.05295879 -0.034378298 0.3141902 0.10118382
0001c0 86 9e da 3d 2b 93 a1 be bc 0c ac 3d 45 05 19 be
       0.10674767 -0.31557593 0.084008664 -0.14943416
0001d0 fa 5d b3 bd 5b 14 c5 be 17 aa 1d 3e b5 25 31 bd
       -0.08758159 -0.38492092 0.15396915 -0.04324885
0001e0 05 3a 77 be 94 74 5a bd be 97 84 3d a8 21 28 be
       -0.24143226 -0.053333834 0.06474255 -0.16419089
0001f0 52 81 9e be 42 6a 2d 3e 35 a6 82 3e 01 4d 68 3e
       -0.3095804 0.16935065 0.2551743 0.22685625
000200 f1 31 a2 3d 22 71 97 be 93 bf a1 3e b0 aa 8a be
       0.07919682 -0.295785 0.31591472 -0.2708335
000210 43 63 4f be 71 f9 e5 3d 15 a3 99 be 07 11 9a be
       -0.20252709 0.11229218 -0.30007234 -0.30091116
000220 18 d7 b9 be 5f 69 a1 be 6c 14 04 be e5 c3 16 be
       -0.36296916 -0.31525704 -0.12898415 -0.14723165
000230 5b ed 02 be 2c 6d e8 3e f2 eb f0 3e 34 20 c8 3e
       -0.12785856 0.45395792 0.47055012 0.3908707

conv1.bias f4 [16]
000000 bd 6c 8f be b2 be 87 be cd f8 38 be bb c4 37 be
       -0.28012648 -0.26512676 -0.1806366 -0.1794614
000010 d4 db 29 be 9c 17 a3 bd 6b ea 08 ba 9b c6 47 3b
       -0.16587764 -0.079634875 -0.0005222919 0.0030483368
000020 eb 6f 87 be e6 af 97 38 c0 cb 03 be 52 8f 46 b8
       -0.26452574 7.233005e-05 -0.12870693 -4.7340356e-05
000030 a5 49 39 3e 98 b5 c3 3e 76 3d b9 3e df a0 6a 3e
       0.180945 0.38224483 0.36179703 0.2291293

conv2.weight f4 [32, 16, 3, 3]
000000 d5 4f 4a bd 04 72 f7 bc 5b 31 d9 bc 40 d5 15 bd
       -0.04939254 -0.030205734 -0.026512792 -0.036580324
000010 39 ca 47 3c d2 2c 5f bc 2a ca 66 bb 81 f7 86 bd
       0.01219421 -0.013621526 -0.0035215714 -0.065901764
000020 44 8b e5 bc 68 4a 4e bd 46 6e fd bc 80 62 21 3a
       -0.028020509 -0.050363928 -0.030936372 0.000615634
000030 ce d9 78 bd c6 fe 4b 3d e0 f3 cf bc cc 24 9f bc
       -0.06075459 0.049803518 -0.025384843 -0.019426726
000040 8a 1e 47 3d 64 3a 91 bc 90 06 eb 3b 98 c8 62 3d
       0.04861311 -0.017728038 0.007172413 0.055367082
000050 f5 6f 91 bd 9c ef 01 3d 16 47 9f bd 25 97 97 3d
       -0.07101432 0.03172265 -0.077772304 0.074018754
000060 7a df 2f bd 5c aa 3c 3d 30 a6 82 3d 3b a7 18 3c
       -0.042937733 0.046060905 0.06379354 0.009317215
000070 ab 94 8a 3c bd 6f 21 bd c5 35 86 bc 68 38 fa bb
       0.016916594 -0.039413203 -0.016383061 -0.0076361187
000080 84 74 1b bb 7a 54 ef bc ac e3 75 3d 09 71 31 3d
       -0.0023720572 -0.029215086 0.060031578 0.04332069
000090 57 9f 0b bd 12 8d 09 bc 25 8a 4d bd 36 74 a7 bd
       -0.034087505 -0.00839545 -0.050180573 -0.08176462
0000a0 b0 8d b4 bd ee 7f 4c bd da de 85 3d f8 b8 86 3d
       -0.08816087 -0.04992669 0.06536646 0.06578249
0000b0 f9 84 74 3d 66 20 68 bc 0f ba 2a bd 58 22 f7 bc
       0.059697125 -0.014167881 -0.041681346 -0.030167744
0000c0 5e c6 71 3b eb 11 4b 3c d0 71 4e bd 23 ad 55 bd
       0.0036891918 0.012394409 -0.05040151 -0.05216707
0000d0 3b 8e e3 bb 65 d6 4b bd 57 40 9e ba 23 8a 5c bd
       -0.0069444454 -0.04976501 -0.0012073618 -0.053842675
0000e0 eb b2 1d 3d 52 03 48 3d 59 1b b2 3c 8c 8d 74 bd
       0.038500708 0.04883129 0.021741556 -0.059705302
0000f0 58 05 95 bd 32 f1 7b bd ae 61 9f bd 9f 7e c2 3d
       -0.0727641 -0.06150932 -0.07782303 0.09496807
000100 c7 07 8b 3c 1f 44 a0 bc eb 61 ae 3d b6 35 0f bc
       0.016971482 -0.019563733 0.0851477 -0.008740833
000110 82 5c 84 bd 88 bf cb 3c ef cd b2 3b 65 84 81 bd
       -0.06462957 0.024871603 0.005456678 -0.063240804
000120 e3 6a b9 3c ab 6b 07 3d 59 4d 92 bd f1 33 9c 3d
       0.022633975 0.033061665 -0.07143659 0.076270945
000130 46 d7 84 3a e1 55 40 bd 75 e6 9d 3d 4d c5 1f 3d
       0.0010134957 -0.0469569 0.07709972 0.03900652
000140 31 bb 52 3b c9 98 d5 3d 69 7c 54 3d 34 97 4b bd
       0.0032155032 0.10429532 0.05187646 -0.049704745
000150 76 e4 d5 3d 6f 1c 19 bb 90 65 57 3d f2 74 ba bd
       0.10443966 -0.0023362895 0.052587092 -0.09104337
000160 55 71 9a bd dc 2a 9d 3c 12 6d 3c 3d 0f 5e c1 bc
       -0.075411476 0.019185476 0.046002455 -0.023604421
000170 d9 2f 99 bb 61 07 56 3d ff 7e 99 3b c9 bb 50 bd
       -0.0046748933 0.05225313 0.0046843286 -0.050960336
000180 68 7d 9b 3c dd 18 51 3d b3 f6 9c bd 85 54 f9 3d
       0.018980697 0.051049102 -0.07664242 0.12174324
000190 96 ee 2f bc f4 ac c0 bd df 27 e0 3d d3 5a 1b bd
       -0.010738036 -0.09407988 0.10945105 -0.037928414
0001a0 d9 d9 ea bc 8f 5a 1e bd fc 2c ca bd 89 3a c0 bd
       -0.028668331 -0.038660582 -0.09871861 -0.09386165
0001b0 99 b5 67 3d 5a 40 9e 3d a1 bf 24 3d 99 96 17 bc
       0.05656967 0.07727118 0.040221814 -0.009252214
0001c0 24 7d 74 bd 7a 7a 9b bd 90 4a 9d bd cb 49 1e bd
       -0.059689656 -0.0759172 -0.07680237 -0.038644593
0001d0 cc 89 44 b7 32 b7 8a bd 64 c5 a6 3c 63 b0 2e 3c
       -1.1714594e-05 -0.06773223 0.020357795 0.010662171
0001e0 c5 c8 9e 3d 51 48 65 bc 6c 9d a0 3d 85 ff 55 3d
       0.077531375 -0.013994292 0.07842526 0.052245636
0001f0 4d de 60 bc 78 08 ed bb ed 23 30 bc 53 d3 19 bd
       -0.013724876 -0.0072336756 -0.010750753 -0.03755505
000200 cd 93 9d bc b5 20 8e 3d e8 88 9a bb 75 b6 c4 3c
       -0.019235516 0.06939832 -0.0047160275 0.024012784
000210 9b 5e 3f bd 3b 80 d8 bc 75 4c 94 3c cb 24 d5 3b
       -0.046721082 -0.026428333 0.018102864 0.00650463
000220 b1 ec 1e bd f4 62 af bd 8b 39 19 3c d0 e1 ac bd
       -0.038799945 -0.08563796 0.009352098 -0.08441508
000230 d8 7a 99 3d 10 d1 89 3d 80 8d c6 bc 5f 93 ec bc
       0.07494134 0.06729329 -0.024237394 -0.028878866
000240 3c 2f 9b bc 22 13 15 3d 50 0e 0e bd 80 28 39 bd
       -0.018943422 0.0363952 -0.03468162 -0.04520464
000250 60 89 5a bc 23 cf 58 bd 00 26 1a bd 85 1c 95 3d
       -0.013338417 -0.052931916 -0.037633896 0.0728083
000260 32 f8 6d 3d ae 9a 09 bd b9 00 87 3d 82 ca 3e 3d
       0.058098026 -0.03359478 0.06591935 0.046579845
000270 44 f6 e4 3c 6a 59 7b 3d f6 a0 a1 bd ac c6 9c bc
       0.02794946 0.06136457 -0.07892029 -0.019137703
000280 4f 20 8f bd 28 38 55 3c ae b3 21 3d 56 a4 83 bd
       -0.06988584 0.013013877 0.039477997 -0.06427829
000290 12 5b 7a 3d 0a 79 55 3d 30 db 94 bd a2 4d a0 3d
       0.061122008 0.052117385 -0.07268369 0.07827307
0002a0 a4 f9 8f bc 9d e2 66 3c f9 36 0b bc b0 dc 76 bd
       -0.017575093 0.014092115 -0.008496993 -0.060269058
0002b0 c0 2e 98 bd 9e 15 42 bd 2e 09 3e 3d d8 86 68 bd
       -0.07430792 -0.047383897 0.046395473 -0.056769222
0002c0 ee a5 6b bd f7 5d 89 3d bd 39 9b 3d 77 36 f6 ba
       -0.05753129 0.067073755 0.07579372 -0.0018784542
0002d0 4f 35 c3 3c d0 2c f2 3c e3 1f 4d bd 28 15 39 3c
       0.02382913 0.029562384 -0.050079238 0.011296548
0002e0 6a a1 6d 3d fe 1c 5a 3d 9e 97 65 bd e8 47 1d 3c
       0.058015265 0.053250305 -0.056052797 0.009599663
0002f0 e9 c7 62 bc 4c d9 d8 3c a8 69 04 bd d8 52 12 bc
       -0.013841608 0.026470803 -0.032327324 -0.008930884
000300 6c ff 21 bd 10 9d ff bc 79 7b 95 3d c8 a1 75 bc
       -0.03955023 -0.031202823 0.07298941 -0.014992185
000310 a2 97 7a 3d af a5 a8 bd 37 97 aa bd 41 98 a7 bd
       0.061179765 -0.08234727 -0.08329623 -0.08183337
000320 6d 09 83 3d 8b 4d d1 bc 62 42 50 bd 39 3c 72 bd
       0.06398282 -0.02554967 -0.050844558 -0.059139464
000330 1b 81 bc bc 43 0f 35 bd 6c fb 28 bd 7c 41 15 3c
       -0.023010781 -0.044204008 -0.0412554 0.009109851
000340 bb ac 6e bd be 28 55 bd 07 2a a9 bd 81 13 66 3c
       -0.058270197 -0.052040808 -0.08259969 0.014042736
000350 95 77 d0 bc 62 16 2e bd 86 b8 51 bd 1f e7 02 3d
       -0.025447646 -0.042501815 -0.051201366 0.031958696
000360 bb 55 d8 3c 3a fb 4e 3d 4d b0 8d 3d 6a b7 a0 3d
       0.026408067 0.050532557 0.06918392 0.078474835
000370 9a 96 5c 3d 44 6a f7 3c ba ff 51 3d 60 d5 b0 bc
       0.053854562 0.030202039 0.05126927 -0.02158612
000380 93 a3 78 bd d1 b2 a8 bd b2 29 3f 3d 9b b1 9f bd
       -0.06070287 -0.082372315 0.046670623 -0.077975474
000390 dd 13 78 3d 7e 8f 53 bd b0 17 8d bd 0e 19 01 bd
       0.060565818 -0.051650517 -0.06889284 -0.031518035
0003a0 37 ee 54 3c 43 b8 46 bd f5 8a 92 3d b0 76 82 3c
       0.012996248 -0.04851557 0.0715541 0.015925735
0003b0 e3 9a 90 3d 60 c6 99 bd b4 9d d9 3c d0 fd 08 3d
       0.07060792 -0.0750854 0.026564457 0.03344518
0003c0 78 b8 2f bc f8 27 6a bd c8 47 7a bd c2 3f 34 3d
       -0.010725133 -0.057167023 -0.061103612 0.044006117
0003d0 70 c1 a9 3c 75 39 56 3c 6e 11 1d 3d c8 5d 96 bd
       0.020722121 0.013075222 0.0383467 -0.07342106
0003e0 9e 65 92 3d 10 74 90 bd e1 0f 2d bd ea ba cf 3b
       0.07148288 -0.07053387 -0.04225147 0.0063394206
0003f0 10 60 8c bc e4 cb b7 3c 23 e8 3e 3d 6a 0d 05 3d
       -0.01713565 0.02243609 0.0466081 0.032483496

conv2.bias f4 [32]
000000 c4 90 0b bd 67 2b 30 bd d4 73 01 bd 54 46 d6 bc
       -0.034073606 -0.04301014 -0.031604603 -0.026156582
000010 ec 8a 31 bb ed fa 9e 3d 8c fa 41 3d 1e 95 94 bd
       -0.002709086 0.07762704 0.04735808 -0.07255004
000020 06 6f 56 bd df 3f 83 3d 1b 68 01 3d 58 9e 08 3e
       -0.052351974 0.06408667 0.031593423 0.13341653
000030 5b 15 49 bd 22 1b b1 bc 45 f2 81 3d b9 76 6a bd
       -0.04909263 -0.021619383 0.06345037 -0.05724213
000040 4f 0e 6f 3d f9 e9 44 bd 06 48 3b bd d3 33 df 3d
       0.058363255 -0.048074696 -0.045722984 0.108985566
000050 17 e4 83 3d 4c ae 8c 3c 95 bf eb bc b9 2b 9f bd
       0.06439989 0.017172955 -0.028777877 -0.07772011
000060 fe c4 10 bd 2b bb 9b 3c a6 4a 03 bd 08 bb 6d 3c
       -0.035344116 0.019010147 -0.032053612 0.014509924
000070 c9 1b 3d bd e2 61 db b8 8d 6f 43 bc d9 80 e7 bc
       -0.046169076 -0.00010460966 -0.011928451 -0.028259682

fcn.weight f4 [10, 2048]
000000 5d 71 a6 3c 55 50 87 3b ef 0e d4 3b ae f5 b1 bb
       0.020317728 0.0041294494 0.006471507 -0.0054308986
000010 41 73 80 3c 8c 4e d0 ba 3f b0 0e 3c 30 23 85 bc
       0.015679957 -0.0015892549 0.0087090125 -0.01625213
000020 26 d1 71 3c 24 0e 95 3c 63 74 3c bc 85 6d 8b bc
       0.0147593375 0.01819522 -0.011502358 -0.017019996
000030 2d bf bd bc 46 7d 28 3c 71 50 40 bb e5 46 43 ba
       -0.023162449 0.010283774 -0.0029344822 -0.0007449224
000040 ac d8 1c bc f8 0c 82 bc ee 99 68 3c 14 1f 3a bc
       -0.009573143 -0.015875325 0.014196856 -0.011359949
000050 7c 32 ae bb d7 bc 00 bc c8 27 90 bc c2 3e 6d 3c
       -0.005316077 -0.007857523 -0.017597094 0.014480295
000060 b4 51 72 bc cf c5 95 3c 78 d6 75 3c 9a 16 76 bc
       -0.014789987 0.018282799 0.015004747 -0.015020037
000070 e4 d5 c5 3b f6 ee fe 3b b1 c0 16 3b fa ad bb bb
       0.0060374606 0.007779951 0.0023003037 -0.0057275267
000080 ba db 11 3c c6 3c 38 bc 6e 94 b3 3c 40 b8 84 3c
       0.008902485 -0.011244958 0.021921363 0.016201138
000090 77 22 38 3c a2 09 52 3b 44 47 46 3c 49 86 57 3c
       0.011238686 0.0032049199 0.012101952 0.013154575
0000a0 68 aa 9b bc 75 bd 43 3a cc c3 9a 3c 18 5d 46 bc
       -0.019002154 0.0007466891 0.018892191 -0.012107156
0000b0 4f e7 66 bb 7a 9b 8f 3c 16 5c e4 3a 05 28 99 bb
       -0.0035233086 0.017530192 0.0017422463 -0.00467396
0000c0 c9 cd b0 3c 8d 63 b0 bc 35 bf 52 3c b4 28 8c 3b
       0.021582501 -0.021531845 0.01286297 0.004277313
0000d0 a3 bc 9d 3c 9f 5f 0e bb 81 e8 19 3b 6a 07 1d ba
       0.019254988 -0.0021724475 0.002348453 -0.00059901795
0000e0 e1 02 81 bc e4 2d a3 3c d3 c8 59 3c 99 1b 28 bc
       -0.015748443 0.019919343 0.013292509 -0.010260486
0000f0 8c d9 e6 3b 29 91 1f 3b 4b 62 b6 bc 59 c8 b0 3b
       0.0070449766 0.0024347997 -0.022263667 0.005394977
000100 29 9e 3f bc 50 84 a9 3b f0 09 8b bc c5 e3 4e bc
       -0.011695423 0.0051732436 -0.016972512 -0.012627547
000110 e7 0e 9b 3c ce 49 ae b9 be 84 57 3c 07 16 a8 bc
       0.018928004 -0.00033242855 0.013154207 -0.020518316
000120 20 01 9d ba ac c5 87 bb 90 6e d6 ba 40 f1 c0 39
       -0.0011978485 -0.0041434374 -0.0016359854 0.0003680084
000130 d4 c3 04 3c 90 15 60 bc f7 98 85 bc bb 09 b4 3c
       0.00810333 -0.013677016 -0.01630829 0.021977296
000140 ef 68 b4 3c 80 f1 97 3b 97 f9 ae 3c 50 ab 8d bc
       0.022022692 0.0046369433 0.021359248 -0.017293602
000150 ea 80 d6 bb cd 88 89 bc 9d 74 9e 3c 3a 79 7d 3c
       -0.0065461295 -0.016788865 0.019342715 0.015470797
000160 3a 36 1a 3c e8 56 ef 3b 72 8a 43 3c b2 d0 33 3c
       0.009412343 0.007304061 0.011934863 0.01097505
000170 db 77 ab bc 1a 55 22 3c 54 f6 ab 3b 15 01 c4 bb
       -0.020931175 0.009907985 0.0052478705 -0.0059815743
000180 98 03 95 3b fc 73 dc 3b 88 ae 7a 3b 16 cf 6b 3c
       0.0045475475 0.0067276936 0.0038251001 0.014392635
000190 12 fd cf ba be a4 48 3c 36 84 57 3c b2 f6 3c bc
       -0.0015868268 0.012246309 0.01315408 -0.011533426
0001a0 80 f1 b3 b9 06 1f 09 3c 6e c2 5a 3c d9 01 ea bb
       -0.00034321472 0.008369213 0.01335202 -0.0071413335
0001b0 60 94 b1 bc d2 77 62 3c a8 8a 19 3b 3e 5a 52 bc
       -0.021677196 0.013822513 0.0023428593 -0.012838898
0001c0 80 e3 3d ba 77 73 85 bc e7 e0 18 bc 8e d9 88 bc
       -0.0007243678 -0.01629041 -0.009330965 -0.0167053
0001d0 43 36 61 bc 22 ec 41 3c 66 27 45 3c 4f 78 1a bb
       -0.013745847 0.011836084 0.012033319 -0.0023570245
0001e0 76 a4 57 3c 30 5a 46 bb 78 5a 9d bc 6a 97 7b bc
       0.013161769 -0.0030266158 -0.019208178 -0.015355924
0001f0 17 d9 55 bc 14 99 ab bc 9e 3a 1a 3c 4c 7e 56 3c
       -0.0130522465 -0.020947017 0.0094133895 0.013091635
000200 6c 1d 3c bc 51 a4 4a bc 9c 86 11 3b 2f b7 79 3c
       -0.011481624 -0.012368278 0.0022205478 0.015241428
000210 3d c0 2e 3c 78 5b a5 bc d2 0f 64 bc 80 83 67 3c
       0.01066595 -0.020185217 -0.0139197875 0.014130473
000220 e0 65 87 bc 59 d3 16 3a 2a fd 80 3c e2 d0 e8 bc
       -0.01652807 0.0005753539 0.015745718 -0.028419916
000230 4c 25 b9 ba da 9e 96 bc 38 06 b7 bc 9b 40 93 3c
       -0.0014125495 -0.018386293 -0.022341833 0.017975142
000240 88 60 7c bc 39 23 7c bc 00 29 2d bc e0 dd be 3b
       -0.015403874 -0.015389257 -0.010568857 0.0058247894
000250 d9 e7 70 3d 28 23 79 3d cf 19 27 bb ea fb b1 3c
       0.058814857 0.060824543 -0.002549756 0.021726567
000260 cf 78 56 bc 3c 09 99 3c 7a e1 75 3c 24 47 5a bd
       -0.013090326 0.018681161 0.015007371 -0.0532905
000270 95 f0 80 bd 6a c1 fc bb e6 1f 1f 3d 18 b9 1c 3d
       -0.062958874 -0.0077134864 0.03884878 0.038262457
000280 f2 48 d4 3b b3 31 30 bc 5b 60 40 bc 2f 1e 13 bd
       0.0064784223 -0.010754037 -0.011741723 -0.035917457
000290 c4 dd c9 bd 08 e2 8e bd cf 59 ba 3c 86 7f 42 3d
       -0.098567516 -0.06976706 0.022747902 0.047484897
0002a0 25 92 3d 3b 8e 83 da bc 81 9b 8c 3b ed da 9e 3d
       0.002892622 -0.026674058 0.0042909984 0.077566005
0002b0 7f 70 77 3d 38 db 03 bd 35 37 bd bc 24 df a7 3b
       0.06041002 -0.032191485 -0.023097614 0.005123036
0002c0 51 ff c4 3b d3 2e 75 bc 2b da 25 3d df 20 80 3d
       0.0060118814 -0.014964777 0.040491264 0.0625627
0002d0 d9 ad 5f 3d aa 85 d5 ba 02 21 19 bd 61 3f 58 bc
       0.054609153 -0.0016290445 -0.037384994 -0.013198704
0002e0 11 d5 a0 bc 94 46 e7 bb d1 4d cc 3b fb c5 12 3c
       -0.019632848 -0.007057974 0.0062348624 0.008958335
0002f0 cd 59 16 bc 71 1f f7 3a f6 7c 47 bc 30 c4 f7 3b
       -0.009176684 0.0018853975 -0.012175789 0.007561229
000300 84 b3 91 3c 24 d0 08 3c dd 7e 67 3c 74 e0 df bb
       0.017785795 0.008350406 0.014129368 -0.006832177
000310 0f 7c f8 bb d2 3f 03 3a f5 35 14 bc 6d 69 5b 3c
       -0.0075831483 0.00050067634 -0.0090460675 0.013391835
000320 d2 c7 b3 bc e7 02 82 bc 5b b1 20 3c 61 41 42 bc
       -0.021945868 -0.015870525 0.00980791 -0.011856408
000330 63 dd 9b 3c e9 de b7 bc 91 a9 e9 3b 67 31 78 ba
       0.019026464 -0.022445159 0.0071308096 -0.0009467811
000340 c6 b5 c3 39 b6 63 02 ba 16 70 65 3c 0b 25 87 3c
       0.0003732873 -0.00049739645 0.014003774 0.016497156
000350 52 25 2d bc 71 0a 0e bc 62 82 e8 bc 07 20 c7 3c
       -0.01056798 -0.008669482 -0.028382484 0.024307264
000360 39 2a a6 3c dc 25 20 ba b6 6c 30 bc 50 37 0d 3c
       0.020283805 -0.0006109157 -0.010768106 0.008619145
000370 f3 60 59 3c d1 e5 a3 bc 9c bc 47 bb be 83 ca ba
       0.013267743 -0.020007046 -0.003047741 -0.0015450639
000380 a0 25 6d bc 00 e0 7c 3b 7a 00 c4 3c 2b f9 b8 3d
       -0.0144743025 0.0038585663 0.023926008 0.090319
000390 da 6d 43 3c 4b d1 7d bc 74 7f d4 3c cb 0d 2b 3d
       0.011928046 -0.015491794 0.02593968 0.0417612
0003a0 64 5e 0a bb 18 7e fd bb 49 fa f9 bb a8 77 05 3d
       -0.002111339 -0.007735979 -0.0076287133 0.032584816
0003b0 f1 cb a8 b9 7b 70 5c 3d 3c 47 ed 3c 92 35 8c 3c
       -0.00032195405 0.053818207 0.028964631 0.017115388
0003c0 8f 5e 95 3c e8 49 1d ba 10 92 4e bc f1 6c 35 bc
       0.018233566 -0.00060000876 -0.012608066 -0.011073337
0003d0 cd e1 ed 3b fc 43 aa b9 18 09 06 bc 98 bd 89 bc
       0.0072595836 -0.0003247558 -0.008180879 -0.016814038
0003e0 a6 36 ad 3c 3a 6b 84 bc 18 9f 99 3c 64 70 8c 3c
       0.021144222 -0.01616441 0.01875262 0.017143436
0003f0 e0 f9 33 bc f1 d4 11 bd 39 ec f8 3b 37 8c bd bb
       -0.010984868 -0.035603467 0.0075965193 -0.005784537

fcn.bias f4 [10]
000000 7c 0d c6 ba 0c b3 a7 3d f5 80 6d bb 11 76 9e bc
       -0.001511022 0.08188447 -0.0036240194 -0.019343408
000010 ef c4 5a 3c d4 9a 1d bb 56 4a cc bc c9 ef 3e 3d
       0.013352617 -0.0024048584 -0.02493779 0.046615396
000020 f1 5c 26 bd a5 95 58 3c
       -0.04061598 0.013219272
